wandb_version: 1

goal:
  desc: null
  value: test
device:
  desc: null
  value: cuda
device_id:
  desc: null
  value: '0'
dataset:
  desc: null
  value: cifar10
num_classes:
  desc: null
  value: 10
model_str:
  desc: null
  value: resnet8
model:
  desc: null
  value: "ResNet(\n  (conv1): Conv2d(3, 64, kernel_size=(7, 7), stride=(2, 2), padding=(3,\
    \ 3), bias=False)\n  (bn1): BatchNorm2d(64, eps=1e-05, momentum=0.1, affine=True,\
    \ track_running_stats=True)\n  (relu): ReLU(inplace=True)\n  (maxpool): MaxPool2d(kernel_size=3,\
    \ stride=2, padding=1, dilation=1, ceil_mode=False)\n  (layer_0): BasicBlock(\n\
    \    (conv1): Conv2d(64, 64, kernel_size=(3, 3), stride=(1, 1), padding=(1, 1),\
    \ bias=False)\n    (bn2): BatchNorm2d(64, eps=1e-05, momentum=0.1, affine=True,\
    \ track_running_stats=True)\n    (relu): ReLU(inplace=True)\n    (conv2): Conv2d(64,\
    \ 64, kernel_size=(3, 3), stride=(1, 1), padding=(1, 1), bias=False)\n    (bn3):\
    \ BatchNorm2d(64, eps=1e-05, momentum=0.1, affine=True, track_running_stats=True)\n\
    \  )\n  (layer_1): BasicBlock(\n    (conv1): Conv2d(64, 128, kernel_size=(3, 3),\
    \ stride=(2, 2), padding=(1, 1), bias=False)\n    (bn2): BatchNorm2d(128, eps=1e-05,\
    \ momentum=0.1, affine=True, track_running_stats=True)\n    (relu): ReLU(inplace=True)\n\
    \    (conv2): Conv2d(128, 128, kernel_size=(3, 3), stride=(1, 1), padding=(1,\
    \ 1), bias=False)\n    (bn3): BatchNorm2d(128, eps=1e-05, momentum=0.1, affine=True,\
    \ track_running_stats=True)\n    (downsample): Sequential(\n      (0): Conv2d(64,\
    \ 128, kernel_size=(1, 1), stride=(2, 2), bias=False)\n      (1): BatchNorm2d(128,\
    \ eps=1e-05, momentum=0.1, affine=True, track_running_stats=True)\n    )\n  )\n\
    \  (layer_2): BasicBlock(\n    (conv1): Conv2d(128, 256, kernel_size=(3, 3), stride=(2,\
    \ 2), padding=(1, 1), bias=False)\n    (bn2): BatchNorm2d(256, eps=1e-05, momentum=0.1,\
    \ affine=True, track_running_stats=True)\n    (relu): ReLU(inplace=True)\n   \
    \ (conv2): Conv2d(256, 256, kernel_size=(3, 3), stride=(1, 1), padding=(1, 1),\
    \ bias=False)\n    (bn3): BatchNorm2d(256, eps=1e-05, momentum=0.1, affine=True,\
    \ track_running_stats=True)\n    (downsample): Sequential(\n      (0): Conv2d(128,\
    \ 256, kernel_size=(1, 1), stride=(2, 2), bias=False)\n      (1): BatchNorm2d(256,\
    \ eps=1e-05, momentum=0.1, affine=True, track_running_stats=True)\n    )\n  )\n\
    \  (avgpool): Sequential(\n    (0): AdaptiveAvgPool2d(output_size=(1, 1))\n  \
    \  (1): Flatten(start_dim=1, end_dim=-1)\n  )\n  (fc): Linear(in_features=256,\
    \ out_features=10, bias=True)\n)"
batch_size:
  desc: null
  value: 32
local_learning_rate:
  desc: null
  value: 0.005
learning_rate_decay:
  desc: null
  value: false
learning_rate_decay_gamma:
  desc: null
  value: 0.99
global_rounds:
  desc: null
  value: 200
local_epochs:
  desc: null
  value: 5
algorithm:
  desc: null
  value: FedTest
join_ratio:
  desc: null
  value: 1.0
…
