…
2024-01-08 09:33:49,085 INFO    MainThread:24663 [wandb_init.py:_log_setup():524] Logging user logs to /home/duong/Documents/git/FederatedLearning/pFL-CAG/system/wandb/run-20240108_093349-lcdmgm03/logs/debug.log
2024-01-08 09:33:49,085 INFO    MainThread:24663 [wandb_init.py:_log_setup():525] Logging internal logs to /home/duong/Documents/git/FederatedLearning/pFL-CAG/system/wandb/run-20240108_093349-lcdmgm03/logs/debug-internal.log
2024-01-08 09:33:49,085 INFO    MainThread:24663 [wandb_init.py:init():564] calling init triggers
2024-01-08 09:33:49,085 INFO    MainThread:24663 [wandb_init.py:init():571] wandb.init called with sweep_config: {}
config: {'goal': 'test', 'device': 'cuda', 'device_id': '0', 'dataset': 'cifar10', 'num_classes': 10, 'model_str': 'resnet8', 'model': ResNet(
  (conv1): Conv2d(3, 64, kernel_size=(7, 7), stride=(2, 2), padding=(3, 3), bias=False)
  (bn1): BatchNorm2d(64, eps=1e-05, momentum=0.1, affine=True, track_running_stats=True)
  (relu): ReLU(inplace=True)
  (maxpool): MaxPool2d(kernel_size=3, stride=2, padding=1, dilation=1, ceil_mode=False)
  (layer_0): BasicBlock(
    (conv1): Conv2d(64, 64, kernel_size=(3, 3), stride=(1, 1), padding=(1, 1), bias=False)
    (bn2): BatchNorm2d(64, eps=1e-05, momentum=0.1, affine=True, track_running_stats=True)
    (relu): ReLU(inplace=True)
    (conv2): Conv2d(64, 64, kernel_size=(3, 3), stride=(1, 1), padding=(1, 1), bias=False)
    (bn3): BatchNorm2d(64, eps=1e-05, momentum=0.1, affine=True, track_running_stats=True)
  )
  (layer_1): BasicBlock(
    (conv1): Conv2d(64, 128, kernel_size=(3, 3), stride=(2, 2), padding=(1, 1), bias=False)
    (bn2): BatchNorm2d(128, eps=1e-05, momentum=0.1, affine=True, track_running_stats=True)
    (relu): ReLU(inplace=True)
    (conv2): Conv2d(128, 128, kernel_size=(3, 3), stride=(1, 1), padding=(1, 1), bias=False)
    (bn3): BatchNorm2d(128, eps=1e-05, momentum=0.1, affine=True, track_running_stats=True)
    (downsample): Sequential(
      (0): Conv2d(64, 128, kernel_size=(1, 1), stride=(2, 2), bias=False)
      (1): BatchNorm2d(128, eps=1e-05, momentum=0.1, affine=True, track_running_stats=True)
    )
  )
  (layer_2): BasicBlock(
    (conv1): Conv2d(128, 256, kernel_size=(3, 3), stride=(2, 2), padding=(1, 1), bias=False)
    (bn2): BatchNorm2d(256, eps=1e-05, momentum=0.1, affine=True, track_running_stats=True)
    (relu): ReLU(inplace=True)
    (conv2): Conv2d(256, 256, kernel_size=(3, 3), stride=(1, 1), padding=(1, 1), bias=False)
    (bn3): BatchNorm2d(256, eps=1e-05, momentum=0.1, affine=True, track_running_stats=True)
    (downsample): Sequential(
      (0): Conv2d(128, 256, kernel_size=(1, 1), stride=(2, 2), bias=False)
      (1): BatchNorm2d(256, eps=1e-05, momentum=0.1, affine=True, track_running_stats=True)
    )
  )
  (avgpool): Sequential(
    (0): AdaptiveAvgPool2d(output_size=(1, 1))
    (1): Flatten(start_dim=1, end_dim=-1)
  )
  (fc): Linear(in_features=256, out_features=10, bias=True)
), 'batch_size': 32, 'local_learning_rate': 0.005, 'learning_rate_decay': False, 'learning_rate_decay_gamma': 0.99, 'global_rounds': 20, 'local_epochs': 5, 'algorithm': 'FedTest', 'join_ratio': 1.0, 'random_join_ratio': False, 'num_clients': 20, 'prev': 0, 'times': 1, 'eval_gap': 1, 'privacy': False, 'dp_sigma': 0.0, 'save_folder_name': 'items', 'auto_b
…
